PythonDesktopChatApp/chatbot_model.pth (torch, 84356 bytes, 6 tensors)

fc1.weight f4 [128, 89]
000000 b1 5c 01 3d d0 a3 b7 bd 55 f5 ae 38 29 59 e4 3d
       0.031582538 -0.08966792 8.342663e-05 0.111498185
000010 50 ef 37 3d 89 0b 12 3e 90 8d da bd 83 ba a6 bd
       0.04490596 0.14262213 -0.10671532 -0.08141043
000020 a1 3c c3 bd cc 0e a3 bd 1b 81 6c 3e b2 2b a8 bd
       -0.095330484 -0.07961807 0.23096125 -0.08211459
000030 ff 7e e6 bc 42 c2 11 be 28 9c 41 3e c4 2c 90 3d
       -0.028136728 -0.1423426 0.18907225 0.07039788
000040 1a d3 4d 3d 88 60 57 3e 05 18 88 bc aa f1 f5 bc
       0.05025015 0.21032917 -0.016613016 -0.030022461
000050 f6 34 05 bc 08 44 90 3d 90 2f 81 3e 11 cb 31 3e
       -0.008130303 0.07044226 0.252316 0.1736262
000060 18 df c2 bd e4 94 04 3e 6e 29 2f 3c 7e 69 1f bd
       -0.09515208 0.12947422 0.01069103 -0.038918965
000070 91 52 ed bd b2 0a c1 bd d9 f3 fb bc 47 4f 28 bc
       -0.11588014 -0.09425868 -0.030755924 -0.010272807
000080 fe d0 a7 bd 3a 92 cf bd f2 47 dd bc 70 5f f6 3d
       -0.08194159 -0.101353124 -0.027011845 0.12029922
000090 cb 30 c9 3b b3 80 d5 3d 19 b4 c4 bc 0e 4a 20 bd
       0.00613985 0.10424938 -0.024011659 -0.039133124
0000a0 0c fe 8c 3c bf cf c5 3d 74 46 3d 3e 13 14 5c 3d
       0.017210983 0.09658765 0.18483907 0.05373008
0000b0 53 12 cb 3d fa 35 cf bd 50 22 da bb be 6d 74 3d
       0.099156044 -0.10117717 -0.0066569224 0.05967497
0000c0 79 4d 91 bd 0f 26 96 3d c1 51 2f 3d 32 a4 6c 3d
       -0.07094855 0.07331478 0.042802576 0.057773776
0000d0 8c d1 f0 bd 50 77 fe bc fb 37 9d 3d 51 f2 21 3d
       -0.11758718 -0.031062752 0.07676693 0.03953773
0000e0 8b 09 dc bd 4f 08 08 bc b8 64 bc 3b 6d 07 0b 3e
       -0.10744008 -0.008302762 0.0057493113 0.13577051
0000f0 6a 4c e3 bd 8f 7c 94 3d 40 67 9c 3c 60 22 7f 3e
       -0.11098559 0.0725032 0.019092202 0.24915457
000100 df b1 13 be 4e 5f 71 3c 1a 02 3c 3d da e8 f0 ba
       -0.14423321 0.014732195 0.04590044 -0.0018379942
000110 45 dc 4e 3e 5d 71 c1 bd d5 2b e9 bc 56 79 48 bd
       0.20201214 -0.094454505 -0.028463284 -0.04894384
000120 98 d6 49 3c 69 e3 af 3d a9 b4 8f 3c ef a3 5c bd
       0.01231923 0.08588297 0.0175422 -0.053867277
000130 4f 02 83 bd a0 09 79 bb 9a 67 44 3e c3 9d 1b be
       -0.06396925 -0.0038000122 0.19180146 -0.151969
000140 9e d3 13 bd 10 9a 8d 3e 79 5c 35 3d 7e f1 f3 3b
       -0.036090486 0.27656603 0.044277642 0.0074445596
000150 dd e2 60 be ac 76 37 3d ac bc 02 be 46 49 3b 3e
       -0.21961541 0.04479091 -0.12767285 0.1828967
000160 bc 5f 32 be f5 96 da 3d 3c 73 06 be 1d 4c 03 3d
       -0.17419332 0.10673324 -0.13129896 0.03205501
000170 8f 1c 15 3e 1f d2 87 bd 06 4e d1 bd f7 3a 95 bd
       0.14561675 -0.06631874 -0.1021996 -0.07286637
000180 28 3b c6 3b 08 a6 a2 bd 77 5a 21 3d ad c5 90 bd
       0.0060495324 -0.07941824 0.039392915 -0.07068954
000190 39 0f 1a 3e 53 a6 94 3d 34 09 09 3e 9b d7 c5 3d
       0.1504487 0.07258286 0.13382417 0.09660264
0001a0 3a b8 23 3d 2c 10 12 bd 64 0d 84 3d c7 fe 22 be
       0.039970614 -0.035659954 0.064478666 -0.15917502
0001b0 80 40 14 3c b8 bd da 3c 93 fa 3f be 4e 1a 33 bc
       0.009048581 0.026701793 -0.1874793 -0.0109315645
0001c0 2f 9c 01 bd 44 d0 5f bd b1 12 0a be 99 6f 0a be
       -0.03164309 -0.054641977 -0.13483693 -0.13519134
0001d0 ab b2 4d bd 8a 3f 08 bb 9e 8e 72 bd 6a 2b 03 3e
       -0.05021922 -0.0020789825 -0.05921804 0.1280953
0001e0 80 12 c6 3d 35 4b 73 3b a8 e6 02 be 6b 91 68 3d
       0.09671497 0.0037123684 -0.12783301 0.056779306
0001f0 c8 7f 18 be 89 52 ad 3d 63 b3 14 be 81 d7 ac 3c
       -0.14892495 0.08463008 -0.14521556 0.021098854
000200 31 fa e0 3d 9c 35 3c 3d 28 7f cd 3d 32 76 39 bd
       0.1098522 0.045949563 0.10034019 -0.045278735
000210 3f 74 d3 bd 05 f0 1d be fe 1c e3 3d 96 7b cc bd
       -0.103249066 -0.15423591 0.11089514 -0.0998451
000220 2a 67 85 3d 8a 55 85 3e 0c 4c a8 bd 08 d7 d6 bd
       0.065138176 0.26041824 -0.0821763 -0.10490233
000230 fa 11 fe bd ed f1 95 3d 06 a1 de bd 60 3c 7c bc
       -0.124057725 0.07321534 -0.108705565 -0.015395254
000240 64 ef 98 bd 53 f4 d5 bd 54 35 70 3d 4e 57 29 3d
       -0.07467535 -0.10446992 0.058644608 0.041343026
000250 58 86 2c bd 54 82 25 bd df a1 1a be 0b 83 c7 3b
       -0.042120308 -0.040407494 -0.15100811 0.0060886196
000260 3d f2 ba bd a4 ec 83 bd d1 64 a8 bd b4 8f 04 bd
       -0.091282345 -0.0644162 -0.08222354 -0.03236361
000270 ad 1a 54 3e b7 a5 8c 3c 40 f8 25 bb b6 41 19 bd
       0.20713301 0.017168863 -0.002532497 -0.037416182
000280 bb c9 d1 3c 80 f2 bb bc ec 18 a6 bd 19 b4 09 be
       0.025608888 -0.022942781 -0.08110222 -0.13447608
000290 03 e8 69 bd 23 8b 13 3e 95 7b 0c bc f5 c2 01 3e
       -0.05710603 0.14408545 -0.008574386 0.12672026
0002a0 f0 f4 98 3d f9 be d6 bc 68 be f1 bd bc 22 fc 3d
       0.07468593 -0.02621411 -0.11803895 0.123113126
0002b0 2e 1e 5c 3e 66 b3 fa bd 50 eb 95 bd 20 7f 11 be
       0.21495888 -0.12241249 -0.07320273 -0.1420865
0002c0 22 bf 99 bd ae 62 1e 3e ca 66 00 3c e7 88 a4 bb
       -0.07507159 0.15467331 0.007837007 -0.005021203
0002d0 d6 26 12 3a d7 91 ae 3c b2 7e 3e bd 8a 28 1e 3b
       0.0005575245 0.021309776 -0.046507545 0.002413305
0002e0 fe 2a 94 3d 7d d0 29 3e 44 96 05 3c 9a 6c a2 bd
       0.072347626 0.16583438 0.008153502 -0.0793087
0002f0 46 c7 10 3e a1 4c 05 bd d9 b7 31 be 31 33 25 3e
       0.14138517 -0.032543782 -0.17355289 0.16132809
000300 65 93 83 3a 13 b7 c3 3d e8 d9 95 bd 19 ce 09 3e
       0.0010038434 0.09556403 -0.07316953 0.13457526
000310 65 dc 03 3e 7e 97 39 be 12 a0 93 3d 47 7c f1 3c
       0.12877043 -0.18124196 0.07208265 0.029478205
000320 50 22 5a 3c 7d a9 17 3e 54 aa 5b b7 01 d3 6c bd
       0.013313845 0.14810748 -1.3093075e-05 -0.057818417
000330 74 f6 07 be 4f df ad bd 36 58 13 3d b3 26 87 bd
       -0.13277608 -0.08489858 0.035972796 -0.06599178
000340 b1 88 2b 3e c5 28 36 be 86 10 92 bd 3e 83 d1 3d
       0.16751362 -0.1778899 -0.07132058 0.102301106
000350 e7 52 65 3d 7d d3 e1 3d 46 2e 25 3e 0a 86 21 3e
       0.055987265 0.11026666 0.16130933 0.15773788
000360 d9 9b 01 3e 8d 1d 8c 3d b8 c6 49 3d 7e 76 d5 bd
       0.12657107 0.06841574 0.04926178 -0.10422991
000370 66 05 e5 3d 05 d3 54 3b 69 8f 64 bd bc f4 fc 3d
       0.1118267 0.003247441 -0.05580083 0.12351367
000380 a8 88 17 3e 21 db 17 bd 90 f4 73 bd 32 b7 9f bd
       0.14798224 -0.037074212 -0.059559405 -0.077986136
000390 9a 60 bc bd 04 85 85 3d 37 7f c4 bd c8 d4 e6 bd
       -0.09198113 0.06519511 -0.09594577 -0.112710536
0003a0 cc cf c5 bd 57 11 bd bd 53 e6 33 3e 94 71 6c bd
       -0.09658775 -0.09231823 0.1756833 -0.057725504
0003b0 f4 9b b5 bd a6 bb 22 3d e4 74 c5 bd a1 be 98 3d
       -0.08867636 0.039729737 -0.09641436 0.074582346
0003c0 ea 7f 09 bd 6e a2 80 bd ab 6e f5 3d da 03 81 3d
       -0.033569254 -0.06280981 0.11983999 0.06299563
0003d0 02 4a 37 bd dd a8 bf bc c2 3e 18 3d 3f 00 de bc
       -0.044748314 -0.02339595 0.037169226 -0.027099727
0003e0 b1 18 ca 3c af 01 c6 3c 74 2c 03 3d ed 69 3f 3e
       0.024669977 0.024170725 0.032024816 0.18692751
0003f0 73 58 05 3e cc cc 67 3e df 70 9e bd 2d 54 1b 3c
       0.13022022 0.22636718 -0.07736372 0.009480518

fc1.bias f4 [128]
000000 52 88 80 3c 89 92 46 3e 01 a3 36 3e 84 b5 6e 3d
       0.015690003 0.19391836 0.17835619 0.058278576
000010 ee 0f 1a 3c e2 9a 7b 3e c6 44 47 3e 68 82 ae 3c
       0.009403212 0.24570802 0.19459829 0.021302417
000020 b7 90 3c 3e 83 fc 17 3e 37 0b 49 3d 49 f2 d9 3d
       0.1841458 0.1484242 0.04908296 0.10641915
000030 32 b6 b8 3c 5a f3 15 3e 7a 04 cf 3d 7b cf 25 bd
       0.022547815 0.14643613 0.10108276 -0.040481072
000040 dc e9 2a 3c 13 fb 90 3d d6 7c e0 3d a9 76 08 3c
       0.010431733 0.070791386 0.109613106 0.008329072
000050 58 54 95 3d bf 97 19 3e 3f d9 42 3e 88 40 ff 3d
       0.07291478 0.14999293 0.19028185 0.1246348
000060 9f d4 2a 3c 6e b5 1a 3e a6 d0 53 3e c8 e3 0f 3e
       0.010426669 0.15108272 0.20685062 0.14051735
000070 74 1f 16 3d 0c 7e 9d 3d 12 eb a7 3c 7f e3 7b 3c
       0.03665109 0.07690057 0.020497832 0.0153740635
000080 f8 67 db 3d 90 5c fe 3d f8 aa a0 bc 22 88 26 3e
       0.1071319 0.12419999 -0.019612774 0.16262868
000090 10 59 81 3d e4 57 3e 3d b4 1e 69 3d a1 0b 35 3e
       0.063158154 0.046470538 0.056914046 0.17680217
0000a0 7f a1 7b 3e 60 23 d7 3d 70 a2 71 3e 2a 4b e0 3d
       0.24573325 0.10504794 0.23597121 0.109518364
0000b0 08 24 8d 3d 3b 57 4e 3d 7d bf aa 3d a5 9e d9 3d
       0.06891638 0.05037616 0.08337305 0.10625962
0000c0 56 9c eb 3d 74 b2 47 bd 21 a3 06 3e 0f c7 ed bc
       0.11504428 -0.04875417 0.13148166 -0.029025583
0000d0 63 12 d4 3d b6 e9 66 3d 89 d4 37 3e 3a 67 9f 3d
       0.103550695 0.056375228 0.1795217 0.07783361
0000e0 67 64 31 3e 7e 58 50 3e 65 13 fc 3d 68 23 c7 3d
       0.17323457 0.20346257 0.12308387 0.0972355
0000f0 a5 6c 05 3d 52 ab a6 3d 93 31 19 3e 78 f4 06 3d
       0.032574315 0.081381455 0.14960317 0.032947987
000100 1e 7b 9c 3d ea 9b aa ba 01 d3 0d 3c 19 d1 02 3e
       0.0764067 -0.0013016437 0.008656264 0.12775077
000110 b1 71 71 3d c4 ad 14 3e 21 d0 81 3d 53 f7 34 3d
       0.058946315 0.14519411 0.063385256 0.04418118
000120 a9 9a 09 3e 8f b4 c6 3d d1 63 5d 3d d9 e3 48 3e
       0.13437904 0.097024076 0.05405027 0.19618167
000130 9c e8 74 3e ad b8 12 3e b0 bf 03 3e e9 c7 6a bd
       0.23916858 0.1432826 0.12866092 -0.057319555
000140 97 e2 20 3e cd b3 30 3e 97 59 44 bc 9e c3 9d 3d
       0.15711437 0.17256089 -0.0119842505 0.07703327
000150 6c 97 2d 3e ea 1e 8e 3c 1b 08 8d 3d 5a f7 3f 3e
       0.16952294 0.017348725 0.068863116 0.18746701
000160 4c 82 17 3e 07 4b 8b 3d c2 86 2f 3d 1d b4 be 3d
       0.14795798 0.0680142 0.042853124 0.09311698
000170 96 d2 fd 3d 13 70 f5 3d da c9 62 3e f0 02 ae 3c
       0.12393682 0.11984267 0.22147313 0.021241635
000180 a5 22 d5 3d 78 8c ac 3d 61 15 11 3e cf 99 16 3e
       0.104069985 0.0842523 0.14168312 0.14707111
000190 3a a6 a2 3d 40 49 de 3d e3 d9 29 3e 76 73 eb 3d
       0.079418615 0.10853815 0.16587023 0.11496632
0001a0 1f b8 95 3e 5c cf 89 3e b0 ae 2a 3e e4 7c cc bb
       0.29242036 0.26916015 0.166682 -0.006240474
0001b0 65 b3 f6 3d fc 95 fa 3d eb aa fd 3d 34 5e 44 3e
       0.120459355 0.122356385 0.12386116 0.1917656
0001c0 44 33 54 bd d0 f8 f0 3d 90 32 34 3d c1 6a 00 3d
       -0.051806703 0.11766207 0.043993533 0.03135181
0001d0 96 e3 dc b9 4b 11 a4 3d 01 9b af 3d b2 b4 bf 3d
       -0.00042131235 0.08011111 0.085744865 0.09360637
0001e0 3d 98 96 3d 42 14 0b 3e fa ed 4e 3e 82 56 12 3e
       0.07353256 0.13581946 0.20207968 0.14290813
0001f0 d4 91 c4 3d 23 04 58 3e e5 11 62 3d a2 79 43 3c
       0.09598127 0.21095328 0.055192847 0.011930855

fc2.weight f4 [64, 128]
000000 dd 5b 9f bd 95 6f aa 3d d1 65 5c bd 03 80 8c bd
       -0.077811934 0.08322064 -0.053808037 -0.06860354
000010 38 e8 5b bd 66 05 8e 3c c2 38 33 3e 00 fe e7 3d
       -0.053688258 0.017336559 0.1750212 0.113277435
000020 14 55 e3 3d a4 da 59 3c 77 48 86 bd 26 9c db 3c
       0.11100212 0.013296757 -0.0655679 0.026807856
000030 e2 2f ed 3c 53 29 3f 3e 21 da 44 3e 3d fd 74 3e
       0.028953496 0.18668108 0.19223835 0.23924728
000040 37 34 11 3e 65 92 44 be 20 9e 5d bd 55 b6 88 3c
       0.14180075 -0.1919647 -0.054105878 0.016688505
000050 dc ea 02 bd cd 6b d3 3d e7 12 54 3e 99 30 4e 3d
       -0.03196226 0.10323296 0.20710336 0.050339315
000060 5d 01 00 be b0 5d 9b bd 10 72 ff bd 2a 76 12 bd
       -0.1250052 -0.07586229 -0.124729276 -0.03575722
000070 a2 5b 65 3e 13 95 43 3d 4c aa 08 bd 0d 1b c7 bc
       0.22398236 0.04774959 -0.033365533 -0.024304891
000080 6a ad 93 3d 16 9d 56 3e 34 3a 4a 3b aa 0d 8b 3d
       0.072108105 0.20958361 0.0030857446 0.067897156
000090 aa a3 16 bd fd 2b db bb c6 2f 54 be c7 d3 8e 3d
       -0.036777176 -0.0066885934 -0.20721349 0.06973987
0000a0 3f c5 ef 3c ae 08 9b 3d 59 6b 15 3e 04 ac 82 3d
       0.029268859 0.07570015 0.14591731 0.063804656
0000b0 3c 21 9a bd 53 90 01 bc 2c d6 ae bd 1f 73 13 3e
       -0.0752587 -0.007907945 -0.08536944 0.14399384
0000c0 32 af cd 3d 8b d2 c5 bc 7a af 0a 3e 99 1c 86 3e
       0.100431815 -0.024148246 0.13543501 0.26193693
0000d0 aa a2 7d ba 4b cd 3a 3d 90 f0 1a bd 98 af 7b 3e
       -0.0009675423 0.04560594 -0.037827075 0.24578702
0000e0 5d 3e 40 3d a7 04 b4 3d bd ab fc bd 04 a8 ed bd
       0.046934474 0.0878995 -0.12337444 -0.11604312
0000f0 f5 a2 e9 bd e7 99 0b 3d 67 2d 07 3e 2e eb e7 bc
       -0.11408035 0.03408232 0.13200913 -0.028310385
000100 b7 3b 4a 3d 9b c3 51 bc a2 96 25 3e 1f da 31 3e
       0.049373355 -0.012802984 0.16170743 0.17368363
000110 7b 20 8d 3d 92 ca 64 bc d1 6e a2 3d 0e 8b 1e 3e
       0.06890961 -0.013964312 0.07931293 0.15482733
000120 22 28 26 bd 85 be 82 3e 30 60 3c 3e 34 55 1d 3e
       -0.040565617 0.2553598 0.18396068 0.15364534
000130 f3 31 68 bc 33 6d 5e bd f9 55 ad bd dd 32 39 3d
       -0.014172065 -0.05430336 -0.084636636 0.045214523
000140 04 ea 3f 3d 64 82 60 bd 04 8b e2 bc a6 88 4f 3c
       0.046854034 -0.05481185 -0.027654178 0.012666857
000150 cd fc 92 bd 3e c2 5a 3d cc 91 f1 3d 5b 02 8b 3d
       -0.07177124 0.0534079 0.11795387 0.06787559
000160 7e 55 21 3d 47 60 92 bc 27 e3 bc bd 74 b2 bc bd
       0.039388172 -0.017868174 -0.09223013 -0.09213725
000170 db f2 15 3e 9e 19 fb ba a6 49 30 bc 99 83 5c bc
       0.14643423 -0.0019157415 -0.010759747 -0.01345911
000180 4b 8a 13 bc 99 58 45 3d 0b b6 2e be d5 02 0f bb
       -0.00900514 0.048180196 -0.17061631 -0.0021821756
000190 97 5c eb bd 81 bb 2b bc b8 db 8d bd 5f 12 78 bd
       -0.114922695 -0.010481716 -0.06926674 -0.060564395
0001a0 3d 55 73 3c 9d 4c 0b 3e 3b fd a8 bb e3 d7 da 3d
       0.014851865 0.13603444 -0.0051571405 0.106857084
0001b0 98 3e 44 3e 5e 4c 3b 3d 6b b5 8d 3c 86 2d d7 3d
       0.19164503 0.045727126 0.01729842 0.1050673
0001c0 f9 19 81 bd 38 e4 dc 3c e3 5a 61 bc 52 39 34 3e
       -0.06303782 0.026964292 -0.013754579 0.17599991
0001d0 64 6e 85 3d 6f 5f cd 3c 67 9d c4 3c d9 58 8a 3d
       0.06515196 0.02506992 0.024000837 0.067552276
0001e0 62 f6 90 3d c0 28 0f bd d0 a0 b7 3d c0 35 13 3e
       0.07078244 -0.03495097 0.089662194 0.14375973
0001f0 02 30 6c bd b1 ca bc ba 32 73 20 3d 9b bc 92 3c
       -0.05766297 -0.0014403668 0.03917236 0.0179122
000200 84 a5 46 be 6c a6 4a 3e 70 6b 0a be 8d 77 b3 3d
       -0.19399077 0.19790047 -0.13517547 0.08763037
000210 b0 65 7e 3e c2 7b a3 bd b4 4b 93 3e 8f f0 e3 bd
       0.24843478 -0.07982589 0.28768694 -0.11129867
000220 f9 72 cc bc 39 92 5d 3e 59 58 97 bc 90 1f ca 3e
       -0.024957167 0.21637811 -0.018474745 0.39477205
000230 69 28 ba bc 4a 68 be 3d 12 43 cb 3d a2 9a ba bd
       -0.022724347 0.09297235 0.09924902 -0.09111525
000240 93 a5 54 3e e9 f2 57 3d 7c d7 95 3d d5 0b 02 3e
       0.20766287 0.05272189 0.07316491 0.12699826
000250 45 08 f3 bc 20 27 b2 bd 79 92 53 3e 45 67 27 bc
       -0.02966703 -0.08698869 0.20661344 -0.0102174925
000260 c9 0c 2e be 65 ae 0b 3e 3a 3f 08 3e 32 cc 58 3d
       -0.16997065 0.13640745 0.13305369 0.05292911
000270 88 74 2a bd c0 39 80 3c 6a ee 94 3d f1 86 11 3e
       -0.04161504 0.015652537 0.072720364 0.14211632
000280 c1 02 13 3e 62 0f eb bb 15 27 3c 3d f4 a7 83 3e
       0.1435652 -0.0071734646 0.04593571 0.25714076
000290 31 7d da bc 8f f5 32 bd 42 81 42 bd 82 37 1d 3e
       -0.026671024 -0.043691214 -0.04748655 0.15353206
0002a0 94 72 89 3d 9f ab 5a 3e 08 79 5d 3e 94 95 e6 bd
       0.06711307 0.21354531 0.21628201 -0.112589985
0002b0 86 06 92 bd 71 9e c1 3d 47 a0 25 3d db e4 20 3e
       -0.071301505 0.094540484 0.040436056 0.15712301
0002c0 99 3e ba 3c a8 45 af 3c 23 76 a3 3c 22 7c 1c be
       0.022734927 0.02139552 0.019953793 -0.15281728
0002d0 a6 10 60 bd d7 52 c3 bd 18 07 8b bb 4e 03 4c 3d
       -0.054703377 -0.09537285 -0.004242789 0.04980784
0002e0 60 f3 08 bd 22 d7 22 3d 61 c5 9e bd 5d c7 16 3e
       -0.033435225 0.039755948 -0.07752491 0.14724489
0002f0 5d c2 23 be f3 f5 c7 bb 0a a8 cb bd 1c 4e 8f bd
       -0.15992112 -0.0061023175 -0.0994416 -0.0699732
000300 6e c9 f0 3d 4d 71 46 3d 12 0e 79 3d 2d 16 54 3e
       0.1175717 0.048447896 0.060804434 0.20711584
000310 ac 43 8b 3d 25 99 a2 bc 2b bb 76 3d 5b b0 c6 3b
       0.06800017 -0.019848416 0.06023709 0.0060635037
000320 05 7a 3d 3d ae 6c 14 3e d5 1e f3 bc fc fe e5 3d
       0.046258945 0.14494583 -0.029677788 0.11230275
000330 09 4a 13 bd 5f fc 34 bc 74 96 26 3c f6 27 2e 3e
       -0.035959277 -0.011046498 0.010167707 0.17007431
000340 02 9c 1a 3e 08 ac ce 3c 86 f2 7e 3e b2 ef 65 3e
       0.15098575 0.025228515 0.24897203 0.22454718
000350 bf e0 ac 3d cb bb b6 3c 3d 3c 3d bd f7 3e b0 bc
       0.084413044 0.022306344 -0.046200026 -0.021514399
000360 69 7c bf 3e 37 71 1d be 67 d7 6d 3d 20 cb 6d 3e
       0.37399605 -0.1537522 0.05806675 0.23222017
000370 d3 a6 9a bc 12 c0 c4 3b 74 d6 da 3c ed 43 8d bd
       -0.018878376 0.006004342 0.026713587 -0.068977214
000380 94 6f 88 bd 22 58 d8 bc 20 96 23 bc de ca a8 bc
       -0.06661907 -0.026409212 -0.009984523 -0.020604547
000390 db d4 0a 3e 72 35 e8 bd 19 d5 e4 bc 7b d4 65 bb
       0.1355776 -0.11338319 -0.027933644 -0.0035069275
0003a0 8c f4 8f 3d 7d 3e 67 3e d2 33 42 3d 01 5b c8 3d
       0.070290655 0.22582431 0.0474127 0.097829826
0003b0 1f 74 60 3c 2a 8e 03 bd 9d 24 84 3e b8 cc c0 3d
       0.01369956 -0.032118 0.25809184 0.09414047
0003c0 e6 04 b9 3d 0e 69 1c 3e 37 13 a3 bd 7f 44 0b bd
       0.090341374 0.1527445 -0.07962649 -0.03400087
0003d0 45 a7 18 be 2b 00 95 ba 69 78 d7 3d 00 da ab bd
       -0.14907558 -0.0011367848 0.10521013 -0.083911896
0003e0 00 9e c3 bc d2 d3 13 3d 35 ab d5 3d a5 28 8a 3c
       -0.023879051 0.03609068 0.10433046 0.016865084
0003f0 d5 02 a3 3d cb 6d 8e bd 07 9e 33 bd 58 00 02 3d
       0.079595245 -0.06954535 -0.04385188 0.03173861

fc2.bias f4 [64]
000000 b3 fc 7f 3b 43 25 a5 3d 83 49 6e 3d 30 03 cb 3d
       0.0039060533 0.08063748 0.058175575 0.09912717
000010 ec 15 9f 3d 91 c0 fa bc 48 36 f1 3c 72 bc 26 bd
       0.07767853 -0.030609401 0.029444829 -0.04070706
000020 b7 24 a6 3d 64 b4 99 3d 4f 30 eb 3d 68 65 cf 3d
       0.081124716 0.0750511 0.114838235 0.101267636
000030 ad 19 8e 3d df 2f 5b bd a3 3f 31 bc 8e df 31 bb
       0.06938491 -0.05351245 -0.010818395 -0.0027141306
000040 7b 66 2a bd aa 06 92 3b d4 61 26 bd ab 2a 52 3d
       -0.04160164 0.004456361 -0.04062064 0.051310223
000050 7a ef 67 3d f9 5f bd 3d a0 39 80 3d 92 40 6b bd
       0.056624867 0.09246821 0.06260991 -0.057434626
000060 84 29 36 3d e5 98 cc 3d e4 40 03 3d 0e 0e 9f 3d
       0.044473186 0.099901 0.032044306 0.077663526
000070 68 02 ec 3d 0d 71 f3 3d 88 d2 bf 3d 7d e6 b5 3c
       0.115238965 0.11886797 0.093663275 0.022204632
000080 5f b6 dc 3d 1f 17 d4 3d 57 6a a7 3d d7 97 94 bc
       0.10776972 0.103559725 0.081745796 -0.01813881
000090 92 ae 3a 3d 45 07 4e bc 47 7a 0e 3d f8 fd 05 3d
       0.04557664 -0.012574975 0.03478458 0.032712907
0000a0 34 7f 01 3e 7b c4 11 bd 92 30 00 3e 86 f4 1f 3d
       0.1264618 -0.03558777 0.12518528 0.039051555
0000b0 f6 dd cf bd 65 d6 2f bc b2 7f 02 bd 54 8f 0f 3e
       -0.101497576 -0.010732268 -0.03186006 0.14019519
0000c0 99 3e 5a b9 8c f9 c7 bb 60 87 e7 3d 9a f6 df 3d
       -0.0002081342 -0.0061027464 0.113051176 0.109357074
0000d0 38 35 cf bb f4 dd b5 3d d8 bf 0d 3e 28 6a 01 3d
       -0.006323483 0.08880225 0.13842714 0.03159538
0000e0 11 d1 38 bd f7 0f 16 3e 25 7a 53 3c 1a b5 98 3d
       -0.045121256 0.14654528 0.0129075395 0.074564174
0000f0 06 96 19 bd 52 9d 3a 3d 31 17 07 3c 64 d3 00 3e
       -0.03749659 0.04556019 0.008245275 0.12580639

fc3.weight f4 [10, 64]
000000 d7 8b 7c bd 57 ac eb 3d 9a 4e 27 bd 52 06 43 3e
       -0.0616568 0.115074806 -0.040846445 0.1904538
000010 01 19 ba be 42 4b 49 3d d3 e5 0c 3e 6b 54 f2 bd
       -0.363472 0.049144037 0.13759546 -0.11832508
000020 e4 33 e4 3d cc 0f 3f 3e 33 a2 5b bd 7c 80 17 3e
       0.1114271 0.1865837 -0.053621482 0.14795107
000030 3f f0 2f 3d 4d fc 03 3e 99 c8 16 be 60 b8 5d be
       0.042953726 0.12889214 -0.1472496 -0.21652365
000040 b5 3a a2 3d f9 37 79 3d 57 fe a3 3d b6 21 c7 be
       0.07921354 0.060844395 0.08007496 -0.38892907
000050 92 9a a6 be 51 2e 8c be 08 eb 6e 3e ae 6e c2 be
       -0.32539803 -0.27379087 0.23331845 -0.37975067
000060 31 77 6b 3c 7d 95 be bc 7a 07 7f 3d d7 41 14 bd
       0.014371679 -0.023264641 0.06226299 -0.036195602
000070 5d 4a 8a be 48 1e c0 3d b2 17 af 3d f6 11 bb be
       -0.2700986 0.09380776 0.085494414 -0.3653714
000080 4f df 1a be 7c 62 4c be 9e 91 8f 3d 04 6d 43 bd
       -0.15124248 -0.19959444 0.07010196 -0.047711387
000090 ab 4d 11 be a7 d1 d0 3d ae 3a 17 be 88 ec d7 3d
       -0.14189784 0.10196238 -0.14768478 0.10543162
0000a0 84 78 21 3e 8a f8 9e be 01 d7 1b 3e 3f 63 0a bf
       0.1576863 -0.31048995 0.15218736 -0.5405769
0000b0 b1 2a 8e bd 87 25 a9 bd ce 30 4a be 00 4f d1 3d
       -0.069417365 -0.08259111 -0.1974518 0.10220146
0000c0 6c e5 ef 3d 04 67 9d be e2 a5 7a be ac 62 a9 3a
       0.117136806 -0.30742657 -0.24477342 0.0012923083
0000d0 9f ed 88 be 32 36 b5 be e4 7a 32 3e 98 12 e5 bd
       -0.2674379 -0.3539291 0.17429692 -0.11185187
0000e0 1b 7b fc 3c 69 cb 13 3e 5b c8 22 3e 8c a2 57 be
       0.03082042 0.14433064 0.15896742 -0.210581
0000f0 fb eb 25 bd 2c 52 8e 3d b1 08 e1 3d 51 42 2e 3d
       -0.04050825 0.06949267 0.10987986 0.042543713
000100 08 09 43 3d 64 d4 06 3e 33 d9 80 be f4 c7 88 be
       0.047616035 0.13166958 -0.2516571 -0.26715052
000110 0a 47 2d be b1 77 ba 3d 12 c1 09 bd ec 0a 09 3c
       -0.1692163 0.091048606 -0.03363139 0.00836442
000120 a2 c5 07 bd ef 1f 96 bd b8 03 8e 3d fc 18 3d 3e
       -0.03314746 -0.073303096 0.06934303 0.18466562
000130 ce c8 0b 3d e2 9e 82 be f7 72 8e be 1f b1 2f 3d
       0.03412705 -0.25511843 -0.27822086 0.042893525
000140 b4 d1 c5 be 83 86 74 3d 78 57 7f be 89 8e cc bd
       -0.38636553 0.059698593 -0.2493571 -0.09988124
000150 60 85 67 bd a0 52 a7 3d 51 90 ba bc 42 06 68 be
       -0.05652368 0.08170056 -0.022773894 -0.22658637
000160 73 7b 8c 3d 4a 11 52 3e 2f ea bf be ff 22 40 3e
       0.068594836 0.20514408 -0.37483355 0.1876335
000170 15 a0 6f 3e 94 72 b5 3d f7 a4 e2 3c e4 d5 0c be
       0.2340091 0.08859745 0.027666552 -0.13753468
000180 bc 7f 1c 3e 6c 47 32 3d de b5 01 be 6a df 3b 3e
       0.15283102 0.043525144 -0.12667033 0.18346944
000190 19 44 76 3e 29 a5 8f 3d 6a 15 90 be c0 de 32 be
       0.24049415 0.07013924 -0.28141338 -0.17467785
0001a0 cd 7f e6 bd ca da 39 3e 2e a2 8d be 6e 16 0f be
       -0.11254845 0.18149868 -0.27662796 -0.139734
0001b0 15 df 62 3d 43 af 82 3d df c9 55 3e 16 54 ac 3d
       0.05538853 0.06381085 0.20877789 0.084144756
0001c0 30 24 f5 bd 4a 7a 64 be c7 2e a2 be f2 e8 22 3e
       -0.11969793 -0.22312275 -0.31676313 0.15909174
0001d0 90 72 e2 bd 34 3c a5 3d 26 b1 07 3e 1a 92 0f be
       -0.11057007 0.080681235 0.1325117 -0.14020577
0001e0 84 ac da 3d 95 76 1a be 37 dd 82 be 10 0f bb b9
       0.10677436 -0.15084298 -0.255594 -0.00035678642
0001f0 1b 92 20 be 0d 4b 2e 3e f8 79 ab be cc cd 20 be
       -0.15680735 0.17020817 -0.33491492 -0.15703505
000200 bb 4e f2 ba 5b 79 bb 3d 6b 71 ad 3d 47 53 9b bc
       -0.0018486598 0.09154006 0.084688984 -0.018960608
000210 b5 cc 97 bd 5d 1c 81 3e 28 af 3f 3c a0 9c db bd
       -0.07412092 0.25216952 0.011699475 -0.10723233
000220 a5 7e 3e 3d 5a 42 59 be 9d c1 6c be e2 05 d8 3d
       0.046507496 -0.21216717 -0.23120733 0.10547997
000230 9c a3 22 3d a6 1d 3b 3e 14 1f 9a 3d c8 b8 d3 be
       0.03970681 0.18273029 0.07525459 -0.41351914
000240 46 41 20 be 28 5e 4c 3e 49 29 2f 3e 0d a4 28 be
       -0.156499 0.19957793 0.17105593 -0.1646883
000250 3a e0 0b be f6 c4 c3 3d e0 a3 2c be 28 98 6d 3d
       -0.13659754 0.09559052 -0.16859388 0.058006436
000260 73 1d 10 3e 33 ef a9 be 37 83 25 be 00 d0 5c be
       0.14073734 -0.33190307 -0.16163336 -0.2156372
000270 d7 e1 e3 bc 53 be 8c 3d de a2 a3 be f1 28 1d 3e
       -0.02781765 0.06872239 -0.31960195 0.15347649
000280 f9 8b 53 be e1 04 c4 3c de e2 34 be 0b 40 41 be
       -0.20658864 0.023928108 -0.17664668 -0.18872087
000290 ae 02 2a be 1a 77 f6 3d b0 cf ac be 40 91 2a 3e
       -0.16602585 0.120344356 -0.33752203 0.16656971
0002a0 9e 3f cf be 22 63 57 3d e6 8f 25 bc 85 73 c7 bc
       -0.40478224 0.052584775 -0.010105109 -0.024347076
0002b0 18 16 d1 bb 26 84 0b bb 8f e6 96 3d d9 35 92 be
       -0.0063808076 -0.0021288483 0.07368194 -0.28556708
0002c0 eb f9 ab 3d 25 51 91 3d b7 1b 73 bc 10 ce 12 be
       0.083972774 0.07095555 -0.014838151 -0.14336419
0002d0 da b7 18 bd c4 00 e3 3c 97 5f 9b be 3b 95 a1 bd
       -0.03728471 0.027710326 -0.30346367 -0.078897916
0002e0 48 72 0e 3e f3 47 84 be 6f cb db 3d 5c 2c 75 be
       0.13910782 -0.25836143 0.10732161 -0.23942703
0002f0 f8 6a 0d 3e 6b dc 12 be 4a 59 27 3b df 80 2a be
       0.13810337 -0.14341895 0.0025535398 -0.16650723
000300 e4 c7 25 3e 76 43 51 be 0e c4 47 bd 0c 70 91 be
       0.16189533 -0.2043589 -0.048770957 -0.28405797
000310 b4 39 ee 3d b7 32 15 3c a0 60 2e be 6c da 27 bd
       0.116321 0.00910633 -0.17029047 -0.040979788
000320 83 90 dd 3c 88 9d 89 be 03 10 16 be 2c 81 c2 3d
       0.027046448 -0.26878 -0.14654545 0.09497294
000330 c7 a6 c8 be 37 41 38 bd 01 8f 8f be c8 af 76 3c
       -0.3918974 -0.04498407 -0.2803879 0.015056558
000340 6f 88 d9 bd 2d 23 36 3e 1e 8d 57 3d ac de 98 bd
       -0.10621726 0.17786856 0.052624814 -0.07464346
000350 9b 87 31 3e b3 2a 75 bd 31 67 59 bd 94 c3 36 3d
       0.17336886 -0.059855174 -0.053076927 0.04462011
000360 eb 91 45 3c 33 e9 ac be f6 12 31 be 2b a9 80 be
       0.012058715 -0.33771667 -0.1729239 -0.25129065
000370 47 95 7e be 5f 21 2a 3d 59 23 c5 be d9 c6 f9 3d
       -0.24861632 0.04153573 -0.3850353 0.1219613
000380 93 74 ce bd e5 61 45 be 9e 35 a6 3d 9a ed ab be
       -0.100808285 -0.19275625 0.081156954 -0.33579713
000390 fa 6d 5e be 98 aa 20 3e 81 b2 9e bd a2 3e 31 3e
       -0.2172164 0.15690076 -0.07748891 0.17309049
0003a0 78 25 bd be 8b 4e 07 3e 8e ad b9 3d 29 3f e4 3d
       -0.3694265 0.13213556 0.09066306 0.11144859
0003b0 5b a5 c5 3d df b9 1f 3e 60 c8 bc bd c4 de c6 be
       0.0965068 0.15598248 -0.09217906 -0.38841832
0003c0 3f f3 39 3e b1 af 32 3e 7f 71 b3 bd 46 26 c5 be
       0.18159197 0.17449833 -0.08761882 -0.38505763
0003d0 21 85 43 be 58 f3 04 3e ad 85 37 be 51 b3 a3 be
       -0.19093753 0.12983453 -0.17922087 -0.31972745
0003e0 e5 d4 8a bd 57 ca e5 bd ec 4e ac be 5c 68 51 3e
       -0.06778888 -0.11220234 -0.33653963 0.20449966
0003f0 29 48 49 3e b2 d4 b5 be cd 07 85 bd 62 57 dd 3a
       0.19656433 -0.35513836 -0.064956285 0.0016887004

fc3.bias f4 [10]
000000 20 dd 95 bd 52 f5 69 bd 30 d1 12 bd 05 3f ec bd
       -0.07317567 -0.05711872 -0.035844028 -0.115354575
000010 69 f6 d3 3d 95 cc 15 bd e9 bf d3 3d 49 20 68 3d
       0.103497334 -0.036572058 0.10339338 0.056671415
000020 a7 a5 84 bd bb b8 c8 bd
       -0.06476908 -0.098008595
