PythonDesktopChatApp/chatbot_model.pth (torch, 64132 bytes, 6 tensors)

fc1.weight f4 [128, 52]
0.10257902 0.107577324 -0.04792656 0.11633439 0.06120206 -0.13580917 -0.077143 0.17344318
-0.099708475 0.18429989 0.0067193196 0.018581158 0.10961246 0.100545615 0.07785042 -0.13855325
0.08271058 0.09274434 0.07981007 -0.06399996 -0.08363121 -0.09733847 -0.03046933 -0.028085317
-0.010742955 0.123884246 -0.045041863 0.0013760191 0.060729302 0.08626066 0.06912698 -0.13417915
0.025135396 -0.13582544 0.012512377 0.068735294 -0.11453897 0.15803435 0.00881226 -0.10760211
0.008308809 -0.13136606 -0.036415692 -0.016829044 0.087404154 -0.12664399 -0.18334669 0.0589313
-0.036281608 -0.13439652 0.036502916 0.005589024 -0.016039368 -0.0747832 -0.1019357 0.03835429
0.021635167 -0.099587396 -0.089744166 0.15678465 0.18668552 -0.047070004 -0.03078824 0.092207134
0.17286313 -0.0022020587 -0.13244139 -0.09168676 0.0006662621 0.16643068 -0.093049936 -0.114681125
0.08305116 -0.10053213 -0.049035568 0.004944656 0.1612895 -0.10904644 0.16856293 0.09169706
0.04593025 0.047434825 0.06558242 -0.027656334 -0.08334518 -0.13466813 -0.0150884725 -0.025686707
-0.006567309 0.09300992 -0.09810244 -0.099453 -0.018832074 -0.1400108 -0.036288064 -0.024856374
-0.0655839 -0.036689363 -0.077587776 -0.09290613 0.18733646 -0.07660595 0.049591806 0.12671906
-0.11269386 0.044396568 -0.05350745 -0.06785385 0.15109846 -0.0820955 -0.10810922 0.01764981
0.03970283 0.12433218 -0.14561184 -0.08589866 0.0893368 0.096040756 0.027220493 -0.12773357
0.08120885 -0.07346763 0.2412769 0.063726574 0.23929214 0.17307559 0.074918054 -0.08050111
-0.06115708 0.11438721 0.088054486 0.041504543 -0.10823851 -0.018164879 -0.11616797 -0.020352922
0.046740267 -0.09893538 -0.15234493 -0.1086187 -0.13193887 0.080810465 0.01788291 -0.11984251
-0.14763227 -0.044959236 0.093968205 0.060280688 0.12183418 -0.13616998 -0.11178084 0.20550387
-0.018284263 -0.1270495 -0.03931557 -0.040770553 0.13792676 -0.12758689 0.029554904 0.08899362
-0.045249783 0.13877268 0.15928343 -0.12748887 0.121684 0.037707794 0.21036485 0.1181563
-0.103038654 0.0119750155 0.13712938 0.18673292 0.044249848 -0.057331048 0.021184832 0.0781495
0.057297535 0.0538181 0.06573781 -0.1668091 -0.08800895 -0.08780252 -0.105458796 0.20413814
0.036927804 -0.03983256 0.07355432 -0.030529154 0.059396222 0.064182796 -0.047271643 -0.06086899
0.10989543 -0.016189737 0.049812406 -0.091521196 0.20295568 0.045070026 0.017815456 0.014239233
-0.09262319 -0.021465005 -0.086245455 -0.114521116 0.17245853 -0.018984815 0.06507275 0.08383938
-0.061126728 -0.129472 -0.0974378 -0.08128644 0.015833318 0.016793633 0.13226633 -0.048826184
0.018395638 -0.046505604 -0.086915225 0.07198393 -0.045671172 0.12695195 -0.026521355 -0.09700068
0.12656415 -0.017475257 0.24407247 -0.14222094 0.20104982 0.24702433 -0.061302163 -0.106667906
-0.11251593 -0.037817925 0.04622835 0.12798066 0.12707843 -0.039534166 0.013387903 0.05747339
-0.13105679 -0.0044211606 0.16660085 0.012901057 0.12008745 -0.13510965 -0.021510199 0.019744262
-0.0033871313 -0.12335864 -0.049798273 -0.102560505 0.13326776 0.059954364 -0.023028955 0.11884685
00000000: f314 d23d 8051 dc3d a44e 44bd ba40 ee3d
00000010: 03af 7a3d 8f11 0bbe 26fd 9dbd 179b 313e
00000020: f533 ccbd 1cb9 3c3e bd2d dc3b 8337 983c
00000030: 7f7c e03d dcea cd3d 0a70 9f3d e7e0 0dbe
00000040: 2a64 a93d bff0 bd3d 7673 a33d 6912 83bd
00000050: d746 abbd 6459 c7bd d19a f9bc 2e13 e6bc
00000060: 3803 30bc 06b7 fd3d d17d 38bd 8a5b b43a
00000070: 4abf 783d 6ea9 b03d 7292 8d3d 4266 09be
00000080: bfe8 cd3c d315 0bbe b700 4d3c 17c5 8c3d
00000090: 6893 eabd c2d3 213e 4c61 103c 7f5e dcbd
000000a0: ac21 083c d384 06be 9f28 15bd 10dd 89bc
000000b0: f300 b33d f6ae 01be 3cbf 3bbe f261 713d
000000c0: 069c 14bd 3e9f 09be 1584 153d 2224 b73b
000000d0: fe64 83bc ef27 99bd aac3 d0bd 6319 1d3d
000000e0: 3c3c b13c 7af4 cbbd cacb b7bd 288c 203e
000000f0: 7d2a 3f3e 7acc 40bd 9e37 fcbc 18d7 bc3d
00000100: 0803 313e 6a50 10bb b79e 07be 45c6 bbbd
00000110: 18a8 2e3a ce6c 2a3e f790 bebd f0dd eabd
00000120: ba16 aa3d cae3 cdbd 85d9 48bd c806 a23b
00000130: 1329 253e bd53 dfbd c39b 2c3e abcb bb3d
00000140: 5c21 3c3d 054b 423d 1350 863d 898f e2bc
00000150: e1b0 aabd 71e6 09be a435 77bc ee6c d2bc
00000160: 9532 d7bb fc7b be3d efe9 c8bd 04ae cbbd
00000170: b945 9abc fe5e 0fbe cba2 14bd 989f cbbc
00000180: da50 86bd 9647 16bd 57e6 9ebd 9245 bebd
00000190: 21d5 3f3e 95e3 9cbd c720 4b3d a4c2 013e
000001a0: 0acc e6bd 2dd9 353d a12a 5bbd f6f6 8abd
000001b0: 8eb9 1a3e af21 a8bd 5e68 ddbd 5696 903c
000001c0: 6f9f 223d dfa1 fe3d 451b 15be a3eb afbd
000001d0: 36f6 b63d 04b1 c43d 83fd de3c 97cc 02be
000001e0: d350 a63d 3276 96bd 4b11 773e 1483 823d
000001f0: 0009 753e ba3a 313e a36e 993d c4dd a4bd
00000200: d97f 7abd d743 ea3d e955 b43d ab00 2a3d
00000210: 27ac ddbd 83ce 94bc 79e9 edbd 2cbb a6bc
00000220: b972 3f3d a29e cabd 4f00 1cbe 7b73 debd
00000230: fc1a 07be f57f a53d 2e7f 923c fd6f f5bd
00000240: ea2c 17be 2d27 38bd 6772 c03d e2e8 763d
00000250: 3384 f93d 2570 0bbe 5aed e4bd 9b6f 523e
00000260: e1c8 95bc 4419 02be 5d09 21bd 06ff 26bd
00000270: ac3c 0d3e 23a6 02be 201d f23c 4942 b63d
00000280: d657 39bd 6d1a 0e3e 321b 233e 718c 02be
00000290: 7635 f93d 7d73 1a3d e269 573e eefb f13d
000002a0: ee05 d3bd db32 443c a56b 0c3e ea36 3f3e
000002b0: 543f 353d f6d3 6abd d08b ad3c d80c a03d
000002c0: d2b0 6a3d 5e70 5c3d 8ca1 863d 01d0 2abe
000002d0: 093e b4bd cfd1 b3bd c8fa d7bd 9709 513e
000002e0: 9c41 173d 7727 23bd a6a3 963d 4718 fabc
000002f0: 7449 733d 4572 833d e99f 41bd c351 79bd
00000300: db10 e13d 57a0 84bc 1808 4c3d 776f bbbd
00000310: 9dd3 4f3e 599b 383d b8f1 913c ac4b 693c
00000320: 3ab1 bdbd 61d7 afbc 75a1 b0bd 0c8a eabd
00000330: f898 303e 0b86 9bbc dd44 853d fbb3 ab3d
00000340: 0560 7abd 4f94 04be 788d c7bd 8179 a6bd
00000350: e0b4 813c cd92 893c d370 073e f7fd 47bd
00000360: 73b2 963c a97c 3ebd 9c00 b2bd 506c 933d
00000370: b211 3bbd b1ff 013e 5043 d9bc 4ba8 c6bd
00000380: 089a 013e 4528 8fbc 22ee 793e 5ea2 11be
00000390: 01e0 4d3e f2f3 7c3e fa17 7bbd b474 dabd
000003a0: c06e e6bd f8e6 1abd f059 3d3d 5d0d 033e
000003b0: d920 023e 94ee 21bd ef58 5b3c 3869 6b3d
000003c0: c033 06be 62df 90bb 6a99 2a3e f45e 533c
000003d0: 69f0 f53d 2f5a 0abe 2836 b0bc b8be a13c
000003e0: a2fa 5dbb 74a3 fcbd 46f9 4bbd 3e0b d2bd
000003f0: 5877 083e b592 753d 38a7 bcbc fa65 f33d

fc1.bias f4 [128]
0.07466014 0.09623334 0.20159614 -0.047029845 0.04874811 0.061630893 0.09073647 0.17379355
-0.051942963 0.06764453 0.09369711 0.15741265 0.0370642 0.19203389 0.09635102 0.12211618
0.16259484 0.08664468 -0.024826577 0.042051747 0.08900614 0.078745306 -0.038444836 0.019669183
0.08549764 -0.09896742 0.08909851 0.10698978 0.18096453 0.09691246 0.26258472 0.08061539
0.20266563 0.15919274 0.23475243 0.0985801 0.022964329 0.2307877 -0.006045865 -0.050643384
0.23016433 -0.018699612 0.12875421 -0.0023578035 0.0040808534 0.110523246 0.19995852 -0.019379217
0.07368319 0.13082795 0.16733651 0.120635256 0.0346779 0.19701962 0.16196816 -0.009872384
0.17798139 -0.00060368865 0.18111382 0.059845313 0.25728643 0.19318317 0.18190467 0.23003347
0.25230378 0.07313472 0.005255095 0.061906368 0.13352981 0.115754925 0.20328875 0.17412755
0.10577656 0.1964766 0.01956962 0.17949033 0.08394098 0.035896696 0.054392792 0.012911125
0.16781601 0.16532621 0.22543086 0.039636906 0.12397384 0.15315817 0.04154885 0.20481355
-0.0358125 -0.082639895 0.23474762 0.16456969 0.14908223 0.12869085 0.14729841 0.16325371
-0.033941638 -0.020618292 0.23359877 0.10009269 0.07431524 0.08536647 0.17627946 -0.03863917
0.058709316 0.084117725 0.16165128 0.2043885 0.05601387 0.1321321 0.094300084 0.13262743
0.14930257 -0.0002667151 0.15715651 0.055620395 0.14249052 0.15084611 0.05416751 0.13071176
-0.028956087 0.04952107 -0.032192294 0.007816023 0.054207493 0.15394507 0.1801457 0.034015257
00000000: 6ae7 983d fc15 c53d 386f 4e3e 5ea2 40bd
00000010: 19ac 473d ad70 7c3d 0bd4 b93d f0f6 313e
00000020: 25c2 54bd 3789 8a3d 45e4 bf3d c830 213e
00000030: a1d0 173d 88a4 443e af53 c53d 0c18 fa3d
00000040: 437f 263e c472 b13d 1b61 cbbc 743e 2c3d
00000050: da48 b63d 3845 a13d 5578 1dbd 4421 a13c
00000060: 6319 af3d 6eaf cabd 4879 b63d 751d db3d
00000070: c44e 393e 0a7a c63d 8171 863e ae19 a53d
00000080: 9487 4f3e 6c03 233e f162 703e 5de4 c93d
00000090: b01f bc3c 9c53 6c3e 641c c6bb 706f 4fbd
000000a0: 33b0 6b3e ee2f 99bc 25d8 033e 6185 1abb
000000b0: aeb8 853b 035a e23d edc1 4c3e 2ac1 9ebc
000000c0: 36e7 963d c3f7 053e 435a 2b3e 9e0f f73d
000000d0: 6a0a 0e3d 83bf 493e fbda 253e c8bf 21bc
000000e0: c140 363e dc40 1eba e775 393e 5c20 753d
000000f0: 0cbb 833e cfd1 453e 3845 3a3e e58d 6b3e
00000100: f62d 813e a8c7 953d ef32 ac3b 8891 7d3d
00000110: 0abc 083e eb10 ed3d ed2a 503e 7e4e 323e
00000120: 62a1 d83d 2931 493e 7850 a03c 50cc 373e
00000130: 40e9 ab3d 6a08 133d faca 5e3d 2f89 533c
00000140: f6d7 2b3e 464b 293e 59d7 663e 4f5a 223d
00000150: ffe5 fd3d 7fd5 1c3e 202f 2a3d a5ba 513e
00000160: 21b0 12bd 1b3f a9bd ae61 703e f584 283e
00000170: 03a9 183e 89c7 033e 65d5 163e fb2b 273e
00000180: 6306 0bbd b1e7 a8bc 8434 6f3e 65fd cc3d
00000190: 9732 983d 9ed4 ae3d 9a82 343e 1b44 1ebd
000001a0: 2e79 703d ea45 ac3d ea87 253e 384b 513e
000001b0: cd6e 653d a34d 073e 6720 c13d 7ccf 073e
000001c0: c6e2 183e e5d5 8bb9 a3ed 203e 36d2 633d
000001d0: 09e9 113e 6777 1a3e c0de 5d3d 4ed9 053e
000001e0: 5135 edbc 9bd6 4a3d 11dc 03bd c70e 003c
000001f0: ad08 5e3d c7a3 1d3e 1d78 383e 9553 0b3d

fc2.weight f4 [64, 128]
0.037993323 -0.00835273 0.014371481 0.00074416224 0.10327589 0.038158763 -0.15426557 0.020644736
-0.10533772 0.17927757 -0.120762356 0.09416121 0.055551913 -0.023976175 -0.12726337 -0.018092766
0.0988653 0.057705566 0.01370069 0.011526926 -0.046713285 0.146562 -0.078315996 0.048141196
0.19299585 -0.06066363 0.1356688 0.05408588 0.1216333 -0.010956794 0.014448549 0.05808845
0.09327465 -0.08575159 0.08984118 -0.06998079 -0.00221794 -0.06509871 -0.15098676 0.017643929
-0.009688968 -0.03335324 0.027227746 0.074565426 0.15725978 0.086958535 -0.026986906 0.13554588
-0.017923836 0.08648109 0.011642928 -0.063519545 0.10752439 0.030479772 0.1130862 0.09705288
-0.087026685 0.02224324 -0.03428064 0.08794266 0.02712112 0.18535972 -0.073972814 -0.009786165
0.07921181 -0.081408165 -0.049575835 0.04272199 0.17128205 0.0044160113 0.07169286 -0.10423067
-0.17422499 0.09508424 0.1510562 0.03937112 -0.14460021 -0.06916585 -0.036988053 -0.045472834
0.08010096 -0.14110428 0.0038260855 0.11059014 -0.022833437 0.054067317 -0.017092098 0.0034311917
0.073710285 -0.09558436 0.02390205 0.115064204 0.071501546 0.09982482 -0.11360011 0.009079355
0.0786182 -0.098753706 0.05379656 -0.009461323 0.11027564 0.091688104 -0.025069151 0.011634685
0.023787862 0.12201214 0.09905008 0.0034115275 0.036168054 -0.015467525 0.1903178 0.027659612
-0.121280126 -0.097068936 0.07923014 0.11855658 0.19631448 0.116169065 -0.0019085577 0.16311279
0.0901852 0.06915013 0.0593307 0.21150205 0.026557581 -0.019018134 0.030160561 -0.014605464
0.18216048 0.044447176 0.22825086 -0.13899642 -0.0035721199 -0.0036367546 -0.11271589 0.13910854
-0.02887521 -0.06778044 0.019966155 -0.055047646 -0.059846666 0.12136913 -0.031739455 0.024630053
0.11886148 0.07502364 -0.1659604 0.026627531 0.1801123 -0.00067216385 -0.0005097794 0.006832306
-0.021329101 -0.101798706 0.045451008 -0.01816675 0.05204041 -0.006426642 0.1030457 -0.021441499
0.16561216 0.046242572 0.07088084 -0.013025524 -0.035746224 0.21920414 -0.04360374 -0.14689477
0.05861227 -0.10370312 0.102894045 -0.043046195 -0.063029625 0.036821615 0.02719447 -0.09351872
-0.11675023 -0.07006944 0.16162829 -0.015543988 -0.009633351 0.20184591 -0.039150015 -0.03611395
0.029664043 -0.037448045 0.118695974 -0.018307598 0.14263117 0.09852991 0.19070968 0.20353207
0.13932477 -0.02926165 0.14521262 -0.0640995 0.104729764 -0.04251148 0.016332401 -0.023668617
0.050084017 0.029009756 0.008959734 0.057973366 -0.058282886 0.053423367 -0.033589084 -0.008817404
0.093012534 0.22537366 0.07555598 0.028094465 0.037051003 0.15146509 0.058546197 0.27638292
-0.061033 -0.07770052 0.11861459 0.034236293 0.04813375 -0.01380214 0.055241074 0.1827985
0.022419743 -0.11245261 0.18377924 0.011059036 0.013844266 0.0201453 0.19986439 -0.018571544
-0.09831071 0.051892824 0.107533894 -0.054423187 -0.04306546 0.12755871 -0.030914549 0.17592886
0.13569054 -0.028109666 -0.05296091 -0.13634044 0.029800156 0.09645863 -0.019423092 -0.0651362
-0.078331485 0.064742394 0.066091664 0.016758153 0.025489062 -0.059751794 -0.011357925 -0.18374489
00000000: e39e 1b3d e4d9 08bc 5c76 6b3c e213 433a
00000010: 4f82 d33d 5d4c 1c3d cbf7 1dbe 261f a93c
00000020: 4dbb d7bd 8a94 373e 4152 f7bd 98d7 c03d
00000030: 678a 633d af69 c4bc 5451 02be 4837 94bc
00000040: e479 ca3d ac5c 6c3d dc78 603c 6fdb 3c3c
00000050: 6e56 3fbd 5914 163e 2364 a0bd b42f 453d
00000060: b4a0 453e 6d7a 78bd c3ec 0a3e 2889 5d3d
00000070: e11a f93d 2084 33bc 9bb9 6c3c 28ee 6d3d
00000080: c806 bf3d 889e afbd a7fe b73d 1752 8fbd
00000090: dc5a 11bb 7952 85bd 469c 1abe 008a 903c
000000a0: 7abe 1ebc 689d 08bd b90c df3c c2b5 983d
000000b0: b508 213e 5117 b23d a513 ddbc 8acc 0a3e
000000c0: 02d5 92bc ff1c b13d fbc1 3e3c 8916 82bd
000000d0: bf35 dc3d b7b0 f93c bd99 e73d a9c3 c63d
000000e0: 0c3b b2bd 7537 b63c db69 0cbd 481b b43d
000000f0: 1c2d de3c f0ce 3d3e 0f7f 97bd 2756 20bc
00000100: cd39 a23d 53b9 a6bd 0810 4bbd 41fd 2e3d
00000110: 9064 2f3e 30b4 903b b5d3 923d e476 d5bd
00000120: 0968 32be 87bb c23d 7aae 1a3e 9d43 213d
00000130: 1412 14be d3a6 8dbd c980 17bd b941 3abd
00000140: f90b a43d a47d 10be 10bf 7a3b 157d e23d
00000150: 300d bbbc b175 5d3d ba04 8cbc d8dd 603b
00000160: 6bf5 963d bcc1 c3bd 3bce c33c c8a6 eb3d
00000170: 676f 923d f570 cc3d 2da7 e8bd 93c1 143c
00000180: 9402 a13d 623f cabd c859 5c3d aa03 1bbc
00000190: 32d8 e13d f9c6 bb3d d25d cdbc 689f 3e3c
000001a0: c3de c23c 80e1 f93d c5da ca3d ef93 5f3b
000001b0: f424 143d 816b 7dbc abe2 423e 6996 e23c
000001c0: b761 f8bd 14cc c6bd 6943 a23d cbcd f23d
000001d0: aa06 493e 0cea ed3d 9228 faba 0a07 273e
000001e0: 05b3 b83d 959e 8d3d c004 733d fe93 583e
000001f0: 498f d93c ebcb 9bbc 4813 f73c c24b 6fbc
00000200: 4788 3a3e 3e0e 363d 98ba 693e 1455 0ebe
00000210: 3a1a 6abb 9e56 6ebb 97d7 e6bd 7872 0e3e
00000220: b48b ecbc 79d0 8abd 1090 a33c a479 61bd
00000230: c721 75bd 6190 f83d 3b01 02bd f7c4 c93c
00000240: a66d f33d ffa5 993d 86f1 29be fb21 da3c
00000250: 5c6f 383e 2734 30ba b7a2 05ba 89e1 df3b
00000260: 5eba aebc d77b d0bd d62a 3a3d 70d2 94bc
00000270: 5328 553d 9596 d2bb a009 d33d 15a6 afbc
00000280: 3c96 293e da68 3d3d f929 913d 0269 55bc
00000290: a26a 12bd 0d77 603e d699 32bd 956b 16be
000002a0: 6b13 703d 4d62 d4bd 1dba d23d 3551 30bd
000002b0: ad15 81bd 43d2 163d f0c6 de3c be86 bfbd
000002c0: bf1a efbd 9180 8fbd e381 253e 36ac 7ebc
000002d0: 34d5 1dbc b2b0 4e3e c45b 20bd 39ec 13bd
000002e0: 0202 f33c 1f63 19bd e016 f33d d1f9 95bc
000002f0: e80d 123e 0dca c93d 6649 433e b66a 503e
00000300: 27ab 0e3e 21b6 efbc 9eb2 143e 9946 83bd
00000310: 8f7c d63d 8520 2ebd 87cb 853c b0e4 c1bc
00000320: e624 4d3d dea5 ed3c d9cb 123c 7b75 6d3d
00000330: 09ba 6ebd 76d2 5a3d b594 09bd df76 10bc
00000340: 5b7d be3d 5ac8 663e 18bd 9a3d 5d26 e63c
00000350: cbc2 173d aa19 1b3e 23ce 6f3d 1082 8d3e
00000360: bdfd 79bd 7321 9fbd 35ec f23d 5b3b 0c3d
00000370: e527 453d 5f22 62bc 7744 623d 882f 3b3e
00000380: 9ca9 b73c 8e4d e6bd a030 3c3e f530 353c
00000390: 0fd3 623c c207 a53c 40a9 4c3e 5a23 98bc
000003a0: 2057 c9bd 928d 543d bb3a dc3d d9ea 5ebd
000003b0: 6865 30bd c09e 023e 8240 fdbc b226 343e
000003c0: 76f2 0a3e 3e46 e6bc 8aed 58bd d49c 0bbe
000003d0: 751f f43c 1a8c c53d 2d1d 9fbc 2166 85bd
000003e0: 426c a0bd a997 843d 115b 873d 6548 893c
000003f0: 70ce d03c 4cbe 74bd 9716 3abc 9f27 3cbe

fc2.bias f4 [64]
0.09417052 0.07222698 -0.0025761127 0.041196417 0.0045355703 -0.00488596 0.08754286 0.054156907
0.008088508 -0.014454115 0.12942554 0.01514678 0.0624803 -0.010785586 -0.003812588 0.030447768
-0.005790818 0.11645637 0.076875046 0.08012651 0.045461167 -0.017689938 0.12836345 -0.05423569
0.043127514 0.03634146 0.06451365 0.056171037 0.08513265 0.019209113 0.08368278 0.011442621
0.14405482 0.14395905 -0.019197663 -0.025918245 -0.050171576 -0.007502485 -0.010505014 0.15037999
0.07289932 0.03676778 0.1071781 -0.0029745058 0.10201011 0.094430655 0.017667307 0.041884284
0.08075521 0.055926763 0.009764476 0.03529139 0.14293544 0.011012992 -0.04650839 0.0265363
0.11664509 -0.073002666 0.047454257 0.010552852 0.06674734 0.12875511 -0.050357554 0.037498187
00000000: 79dc c03d bdeb 933d 00d4 28bb 93bd 283d
00000010: 1f9f 943b 671a a0bb ac49 b33d a2d3 5d3d
00000020: a985 043c f4d0 6cbc 2188 043e 332a 783c
00000030: 58eb 7f3d 07b6 30bc 9ddc 79bb 996d f93c
00000040: e7c0 bdbb ad80 ee3d aa70 9d3d 5e19 a43d
00000050: 7d35 3a3d 7dea 90bc b571 033e 3e26 5ebd
00000060: 7aa6 303d c8da 143d bc1f 843d 9a13 663d
00000070: 075a ae3d 6e5c 9d3c e161 ab3d d579 3b3c
00000080: 1b83 133e 006a 133e 6b44 9dbc 8052 d4bc
00000090: b680 4dbd 68d7 f5bb 391d 2cbc 36fd 193e
000000a0: 3d4c 953d d099 163d 3180 db3d edef 42bb
000000b0: adea d03d dc64 c13d 07bb 903c db8e 2b3d
000000c0: fd62 a53d 7613 653d 2efb 1f3c b48d 103d
000000d0: ab5d 123e d66f 343c 957f 3ebd a862 d93c
000000e0: 9fe3 ee3d 6c82 95bd 655f 423d dfe5 2c3c
000000f0: d4b2 883d 61d8 033e b943 4ebd b397 193d

fc3.weight f4 [5, 64]
0.21510838 0.091870375 -0.28656447 0.019883815 -0.22301865 -0.17678104 0.1807259 0.17526458
-0.14477567 0.24696684 -0.07247824 0.2509185 0.19975914 -0.15725476 -0.1395636 0.00040316558
0.08123144 -0.075903945 0.20486537 0.20148559 0.107766084 -0.046141002 0.0769494 -0.267339
-0.21696414 0.089048706 0.19765958 -0.13285203 -0.13794841 -0.09520876 0.08529154 -0.17968832
0.00053305906 -0.00093061454 -0.11477515 -0.11872985 -0.17023066 -0.3416201 -0.1366601 0.07380901
-0.16515625 -0.2531341 -0.08252778 0.26944843 0.06538025 -0.20042269 0.08713891 -0.03862826
0.17615302 -0.1503687 -0.1812742 -0.04905751 0.08744425 -0.25365564 0.072317116 -0.13431911
0.14105338 -0.02774837 -0.016872814 -0.31352955 0.14945917 0.15736039 -0.09049501 -0.09473027
-0.29111496 0.1027163 0.13372923 -0.07179655 -0.18047957 0.04427045 0.19687964 -0.30520758
0.2520456 -0.2384519 0.084765136 -0.1048903 0.14382556 0.15042995 -0.119342156 -0.18559286
-0.2501071 -0.21278559 -0.026346184 -0.26531073 0.069067694 -0.09082836 -0.3041994 -0.1485874
0.08676393 -0.024912685 -0.0918027 0.04437598 -0.02471216 0.045255076 0.20726417 -0.19100195
-0.2372512 0.12712485 0.20380265 0.21652313 -0.23100284 0.11148753 0.20157033 0.22065064
0.0028773847 0.077517115 0.20426083 -0.2657583 0.115013674 -0.23281746 -0.26467317 -0.15524444
0.15193623 -0.22918232 -0.10061091 -0.18504678 0.18403567 0.13889305 -0.1253265 -0.17518762
-0.11236627 0.0794142 0.10421908 -3.1439136e-05 0.18202208 0.11096171 -0.115513146 -0.2453236
0.03810565 -0.18761472 -0.21605591 0.13817015 -0.14691018 -0.20096101 -0.21637137 -0.185409
0.023363313 -0.155835 0.22329958 -0.16453134 -0.20134287 0.19296072 0.23949945 0.24605373
-0.15380815 0.08142132 0.13514036 -0.25013578 -0.2973424 -0.2092552 -0.14297365 -0.19605556
0.015195609 -0.09791891 0.02537013 0.18365926 0.22298604 0.018685875 -0.2556522 0.14780155
0.08180996 -0.059333224 -0.10914835 -0.0019636203 -0.1769787 -0.036610946 0.020305818 -0.089342095
0.19027157 -0.060329895 -0.25651082 -0.22508353 -0.048694674 0.10703525 0.08664821 -0.21260469
0.02256654 0.060511135 0.04848079 0.16518182 0.0038134921 0.09457101 0.09426513 0.15804304
0.034007777 -0.20339863 -0.20917198 0.15708838 -0.27160877 -0.2767472 0.19712816 0.11156703
-0.051107273 -0.2413103 0.04957826 -0.27521017 0.2615624 0.20595822 0.01781486 0.16755411
-0.09198474 -0.0805783 -0.24624895 -0.07424702 0.011358466 -0.28165606 -0.117819116 0.14634071
0.14129825 -0.23951437 -0.20673874 0.03871759 -0.12644093 0.25413075 -0.13088477 0.15826696
-0.32343197 0.19671448 0.07732297 0.016882952 -0.001801894 -0.2553979 -0.13641764 0.14769663
0.06827082 -0.30059835 -0.2286847 -0.20477873 0.21270977 -0.026840072 -0.13566841 -0.17797382
-0.12829256 0.19183439 -0.010895679 -0.006892353 -0.25098825 -0.05401458 0.20199609 0.17573704
-0.28078246 -0.26667494 0.23767874 -0.114420064 0.10248996 0.11867139 -0.059289318 -0.092027694
-0.25995818 0.064964995 0.18161952 -0.19496378 -0.13860494 -0.06939777 -0.07217031 0.22649023
00000000: 5f45 5c3e 8926 bc3d 94b8 92be 62e3 a23c
00000010: 005f 64be 1706 35be 3610 393e 8f78 333e
00000020: 1340 14be e0e4 7c3e 796f 94bd 6478 803e
00000030: a98d 4c3e 6407 21be c3e9 0ebe f85f d339
00000040: ab5c a63d 8773 9bbd 3ac8 513e 3d52 4e3e
00000050: 77b4 dc3d 59fe 3cbd a697 9d3d a8e0 88be
00000060: d92b 5ebe 2b5f b63d 4667 4a3e 5d0a 08be
00000070: 5942 0dbe cffc c2bd 55ad ae3d 3700 38be
00000080: fdbc 0b3a 7cf4 73ba 3c0f ebbd a328 f3bd
00000090: f250 2ebe d4e8 aebe a0f0 0bbe 2e29 973d
000000a0: b81e 29be cb9a 81be 5304 a9bd 25f5 893e
000000b0: 15e6 853d 9b3b 4dbe e375 b23d ab38 1ebd
000000c0: 7561 343e 41fa 19be f29f 39be 87f0 48bd
000000d0: f915 b33d 27df 81be ff1a 943d f38a 09be
000000e0: 4c70 103e 8d50 e3bc db38 8abc f286 a0be
000000f0: d30b 193e 1523 213e 7355 b9bd f201 c2bd
00000100: 050d 95be ec5c d23d 51f0 083e 120a 93bd
00000110: a3cf 38be ee54 353d d19a 493e 2b44 9cbe
00000120: 1f0c 813e bc2c 74be 5899 ad3d bad0 d6bd
00000130: 0247 133e 4f0a 1a3e a969 f4bd 0e0c 3ebe
00000140: 0a0e 80be 77e4 59be f4d3 d7bc cfd6 87be
00000150: 5d73 8d3d 3804 babd 06c0 9bbe 4c27 18be
00000160: 4ab1 b13d b015 ccbc 0e03 bcbd 96c3 353d
00000170: 2871 cabc 635d 393d 0f3d 543e 0496 43be
00000180: fbf1 72be 042d 023e a4b1 503e 3db8 5d3e
00000190: 028c 6cbe 9353 e43d 7468 4e3e 3ef2 613e
000001a0: 8192 3c3b 4bc1 9e3d c029 513e 7911 88be
000001b0: 4a8c eb3d b367 6ebe 3e83 87be 66f8 1ebe
000001c0: 2c95 1b3e c5ae 6abe 180d cebd e77c 3dbe
000001d0: d973 3c3e fb39 0e3e 9755 00be 6264 33be
000001e0: 4920 e6bd e9a3 a23d d070 d53d 84dd 03b8
000001f0: ff63 3a3e e53f e33d 2892 ecbd 1c36 7bbe
00000200: ac14 1c3d 131e 40be c33d 5dbe 7a7c 0d3e
00000210: 9f6f 16be b9c8 4dbe 7590 5dbe dbdb 3dbe
00000220: 6b64 bf3c 3693 1fbe a5a8 643e e77a 28be
00000230: d32c 4ebe 7f97 453e 583f 753e 82f5 7b3e
00000240: e27f 1dbe 39c0 a63d 3c62 0a3e cc11 80be
00000250: 433d 98be ff46 56be af67 12be cac2 48be
00000260: 01f7 783c b689 c8bd 05d5 cf3c 2c11 3c3e
00000270: 7456 643e 1f13 993c d8e4 82be 4a59 173e
00000280: fb8b a73d 6507 73bd 2c89 dfbd 15b0 00bb
00000290: e839 35be 5cf5 15bd 6358 a63c fdf8 b6bd
000002a0: 8dd6 423e 7b1c 77bd 6355 83be 4c7c 66be
000002b0: 1174 47bd 4c35 db3d 9e74 b13d 0bb5 59be
000002c0: 77dd b83c 86da 773d cb93 463d 6c25 293e
000002d0: c8eb 793b 72ae c13d 140e c13d 09d6 213e
000002e0: bd4b 0b3d bb47 50be 2e31 56be c7db 203e
000002f0: 4e10 8bbe cfb1 8dbe f7db 493e 417d e43d
00000300: dc55 51bd 0c1a 77be 9312 4b3d 59e8 8cbe
00000310: 82eb 853e b6e6 523e 78f0 913c 4e93 2b3e
00000320: 7f62 bcbd 3c06 a5bd af28 7cbe d20e 98bd
00000330: dc18 3a3c 3935 90be 264b f1bd 57da 153e
00000340: 7db0 103e 4143 75be 52b3 53be 5696 1e3d
00000350: bb79 01be 6d1d 823e a806 06be bc10 223e
00000360: e098 a5be 856f 493e 815b 9e3d 1e4e 8a3c
00000370: 882d ecba 83c3 82be 11b1 0bbe c93d 173e
00000380: 92d1 8b3d 07e8 99be 522c 6abe 84b1 51be
00000390: 97d0 593e b6df dbbc a9ec 0abe c53e 36be
000003a0: 205f 03be 3c70 443e ca83 32bc 3fd9 e1bb
000003b0: 8881 80be 643e 5dbd 10d8 4e3e 69f4 333e
000003c0: b8c2 8fbe 9e89 88be 0e62 733e 1155 eabd
000003d0: 42e6 d13d fc09 f33d 5bd9 72bd 0479 bcbd
000003e0: 3d19 85be 5e0c 853d 78fa 393e 96a4 47be
000003f0: 74ee 0dbe 6b20 8ebd 07ce 93bd 0eed 673e

fc3.bias f4 [5]
0.117713526 0.047757085 -0.033416588 -0.061905447 -0.15049797
00000000: ca13 f13d ef9c 433d d5df 08bd 9190 7dbd
00000010: 241c 1abe
